
xception / 5 frames
Model: "sequential"
_________________________________________________________________
Layer (type)                 Output Shape              Param #   
=================================================================
lstm (LSTM)                  (None, 256)               2360320   
_________________________________________________________________
dense (Dense)                (None, 32)                8224      
_________________________________________________________________
dense_1 (Dense)              (None, 128)               4224      
_________________________________________________________________
dense_2 (Dense)              (None, 3)                 387       
=================================================================
Total params: 2,373,155
Trainable params: 2,373,155
Non-trainable params: 0
_________________________________________________________________
27.2 Megabyte

mobilenetv2 / 5 frames
Model: "sequential"
_________________________________________________________________
Layer (type)                 Output Shape              Param #   
=================================================================
lstm (LSTM)                  (None, 256)               1573888   
_________________________________________________________________
dense (Dense)                (None, 64)                16448     
_________________________________________________________________
dense_1 (Dense)              (None, 32)                2080      
_________________________________________________________________
dense_2 (Dense)              (None, 3)                 99        
=================================================================
Total params: 1,592,515
Trainable params: 1,592,515
Non-trainable params: 0
_________________________________________________________________
18.27 Megabyte

base_2 / 5 frames
Model: "sequential"
_________________________________________________________________
Layer (type)                 Output Shape              Param #   
=================================================================
lstm (LSTM)                  (None, 32)                69760     
_________________________________________________________________
dense (Dense)                (None, 64)                2112      
_________________________________________________________________
dense_1 (Dense)              (None, 64)                4160      
_________________________________________________________________
dense_2 (Dense)              (None, 3)                 195       
=================================================================
Total params: 76,227
Trainable params: 76,227
Non-trainable params: 0
_________________________________________________________________
934.62 Kilobyte

base_1 / 5 frames
Model: "sequential"
_________________________________________________________________
Layer (type)                 Output Shape              Param #   
=================================================================
lstm (LSTM)                  (None, 128)               328192    
_________________________________________________________________
dense (Dense)                (None, 64)                8256      
_________________________________________________________________
dense_1 (Dense)              (None, 128)               8320      
_________________________________________________________________
dense_2 (Dense)              (None, 3)                 387       
=================================================================
Total params: 345,155
Trainable params: 345,155
Non-trainable params: 0
_________________________________________________________________
3.99 Megabyte

base_3 / 5 frames
Model: "sequential"
_________________________________________________________________
Layer (type)                 Output Shape              Param #   
=================================================================
lstm (LSTM)                  (None, 256)               787456    
_________________________________________________________________
dense (Dense)                (None, 64)                16448     
_________________________________________________________________
dense_1 (Dense)              (None, 32)                2080      
_________________________________________________________________
dense_2 (Dense)              (None, 3)                 99        
=================================================================
Total params: 806,083
Trainable params: 806,083
Non-trainable params: 0
_________________________________________________________________
9.27 Megabyte

nasnetmobile / 5 frames
Model: "sequential"
_________________________________________________________________
Layer (type)                 Output Shape              Param #   
=================================================================
lstm (LSTM)                  (None, 64)                286976    
_________________________________________________________________
dense (Dense)                (None, 32)                2080      
_________________________________________________________________
dense_1 (Dense)              (None, 32)                1056      
_________________________________________________________________
dense_2 (Dense)              (None, 3)                 99        
=================================================================
Total params: 290,211
Trainable params: 290,211
Non-trainable params: 0
_________________________________________________________________
3.36 Megabyte

nasnetlarge / 5 frames
Model: "sequential"
_________________________________________________________________
Layer (type)                 Output Shape              Param #   
=================================================================
lstm (LSTM)                  (None, 64)                1048832   
_________________________________________________________________
dense (Dense)                (None, 32)                2080      
_________________________________________________________________
dense_1 (Dense)              (None, 32)                1056      
_________________________________________________________________
dense_2 (Dense)              (None, 3)                 99        
=================================================================
Total params: 1,052,067
Trainable params: 1,052,067
Non-trainable params: 0
_________________________________________________________________
12.08 Megabyte

resnet152v2 / 5 frames
Model: "sequential"
_________________________________________________________________
Layer (type)                 Output Shape              Param #   
=================================================================
lstm (LSTM)                  (None, 128)               1114624   
_________________________________________________________________
dense (Dense)                (None, 32)                4128      
_________________________________________________________________
dense_1 (Dense)              (None, 64)                2112      
_________________________________________________________________
dense_2 (Dense)              (None, 3)                 195       
=================================================================
Total params: 1,121,059
Trainable params: 1,121,059
Non-trainable params: 0
_________________________________________________________________
12.87 Megabyte

base_0 / 5 frames
Model: "sequential"
_________________________________________________________________
Layer (type)                 Output Shape              Param #   
=================================================================
lstm (LSTM)                  (None, 32)                69760     
_________________________________________________________________
dense (Dense)                (None, 32)                1056      
_________________________________________________________________
dense_1 (Dense)              (None, 64)                2112      
_________________________________________________________________
dense_2 (Dense)              (None, 3)                 195       
=================================================================
Total params: 73,123
Trainable params: 73,123
Non-trainable params: 0
_________________________________________________________________
899.12 Kilobyte

efficientnetb0 / 5 frames
Model: "sequential"
_________________________________________________________________
Layer (type)                 Output Shape              Param #   
=================================================================
lstm (LSTM)                  (None, 64)                344320    
_________________________________________________________________
dense (Dense)                (None, 64)                4160      
_________________________________________________________________
dense_1 (Dense)              (None, 128)               8320      
_________________________________________________________________
dense_2 (Dense)              (None, 3)                 387       
=================================================================
Total params: 357,187
Trainable params: 357,187
Non-trainable params: 0
_________________________________________________________________
4.13 Megabyte

densenet201 / 5 frames
Model: "sequential"
_________________________________________________________________
Layer (type)                 Output Shape              Param #   
=================================================================
lstm (LSTM)                  (None, 256)               2229248   
_________________________________________________________________
dense (Dense)                (None, 64)                16448     
_________________________________________________________________
dense_1 (Dense)              (None, 32)                2080      
_________________________________________________________________
dense_2 (Dense)              (None, 3)                 99        
=================================================================
Total params: 2,247,875
Trainable params: 2,247,875
Non-trainable params: 0
_________________________________________________________________
25.77 Megabyte

base_4 / 5 frames
Model: "sequential"
_________________________________________________________________
Layer (type)                 Output Shape              Param #   
=================================================================
lstm (LSTM)                  (None, 256)               787456    
_________________________________________________________________
dense (Dense)                (None, 32)                8224      
_________________________________________________________________
dense_1 (Dense)              (None, 64)                2112      
_________________________________________________________________
dense_2 (Dense)              (None, 3)                 195       
=================================================================
Total params: 797,987
Trainable params: 797,987
Non-trainable params: 0
_________________________________________________________________
9.17 Megabyte

inceptionresnetv2 / 5 frames
Model: "sequential"
_________________________________________________________________
Layer (type)                 Output Shape              Param #   
=================================================================
lstm (LSTM)                  (None, 256)               1836032   
_________________________________________________________________
dense (Dense)                (None, 32)                8224      
_________________________________________________________________
dense_1 (Dense)              (None, 32)                1056      
_________________________________________________________________
dense_2 (Dense)              (None, 3)                 99        
=================================================================
Total params: 1,845,411
Trainable params: 1,845,411
Non-trainable params: 0
_________________________________________________________________
21.16 Megabyte

densenet121 / 5 frames
Model: "sequential"
_________________________________________________________________
Layer (type)                 Output Shape              Param #   
=================================================================
lstm (LSTM)                  (None, 128)               590336    
_________________________________________________________________
dense (Dense)                (None, 32)                4128      
_________________________________________________________________
dense_1 (Dense)              (None, 128)               4224      
_________________________________________________________________
dense_2 (Dense)              (None, 3)                 387       
=================================================================
Total params: 599,075
Trainable params: 599,075
Non-trainable params: 0
_________________________________________________________________
6.9 Megabyte

vgg19 / 5 frames
Model: "sequential"
_________________________________________________________________
Layer (type)                 Output Shape              Param #   
=================================================================
lstm (LSTM)                  (None, 256)               25953280  
_________________________________________________________________
dense (Dense)                (None, 64)                16448     
_________________________________________________________________
dense_1 (Dense)              (None, 64)                4160      
_________________________________________________________________
dense_2 (Dense)              (None, 3)                 195       
=================================================================
Total params: 25,974,083
Trainable params: 25,974,083
Non-trainable params: 0
_________________________________________________________________
297.29 Megabyte

densenet169 / 5 frames
Model: "sequential"
_________________________________________________________________
Layer (type)                 Output Shape              Param #   
=================================================================
lstm (LSTM)                  (None, 32)                217216    
_________________________________________________________________
dense (Dense)                (None, 64)                2112      
_________________________________________________________________
dense_1 (Dense)              (None, 32)                2080      
_________________________________________________________________
dense_2 (Dense)              (None, 3)                 99        
=================================================================
Total params: 221,507
Trainable params: 221,507
Non-trainable params: 0
_________________________________________________________________
2.58 Megabyte

vgg16 / 5 frames
Model: "sequential"
_________________________________________________________________
Layer (type)                 Output Shape              Param #   
=================================================================
lstm (LSTM)                  (None, 128)               12911104  
_________________________________________________________________
dense (Dense)                (None, 128)               16512     
_________________________________________________________________
dense_1 (Dense)              (None, 64)                8256      
_________________________________________________________________
dense_2 (Dense)              (None, 3)                 195       
=================================================================
Total params: 12,936,067
Trainable params: 12,936,067
Non-trainable params: 0
_________________________________________________________________
148.08 Megabyte
