
nasnetmobile / 15 frames
Model: "sequential"
_________________________________________________________________
Layer (type)                 Output Shape              Param #   
=================================================================
lstm (LSTM)                  (None, 64)                286976    
_________________________________________________________________
dense (Dense)                (None, 64)                4160      
_________________________________________________________________
dense_1 (Dense)              (None, 32)                2080      
_________________________________________________________________
dense_2 (Dense)              (None, 3)                 99        
=================================================================
Total params: 293,315
Trainable params: 293,315
Non-trainable params: 0
_________________________________________________________________
3.4 Megabyte

inceptionresnetv2 / 15 frames
Model: "sequential"
_________________________________________________________________
Layer (type)                 Output Shape              Param #   
=================================================================
lstm (LSTM)                  (None, 128)               852480    
_________________________________________________________________
dense (Dense)                (None, 128)               16512     
_________________________________________________________________
dense_1 (Dense)              (None, 128)               16512     
_________________________________________________________________
dense_2 (Dense)              (None, 3)                 387       
=================================================================
Total params: 885,891
Trainable params: 885,891
Non-trainable params: 0
_________________________________________________________________
10.18 Megabyte

xception / 15 frames
Model: "sequential"
_________________________________________________________________
Layer (type)                 Output Shape              Param #   
=================================================================
lstm (LSTM)                  (None, 64)                540928    
_________________________________________________________________
dense (Dense)                (None, 32)                2080      
_________________________________________________________________
dense_1 (Dense)              (None, 32)                1056      
_________________________________________________________________
dense_2 (Dense)              (None, 3)                 99        
=================================================================
Total params: 544,163
Trainable params: 544,163
Non-trainable params: 0
_________________________________________________________________
6.27 Megabyte

vgg16 / 15 frames
Model: "sequential"
_________________________________________________________________
Layer (type)                 Output Shape              Param #   
=================================================================
lstm (LSTM)                  (None, 256)               25953280  
_________________________________________________________________
dense (Dense)                (None, 64)                16448     
_________________________________________________________________
dense_1 (Dense)              (None, 128)               8320      
_________________________________________________________________
dense_2 (Dense)              (None, 3)                 387       
=================================================================
Total params: 25,978,435
Trainable params: 25,978,435
Non-trainable params: 0
_________________________________________________________________
297.34 Megabyte

nasnetlarge / 15 frames
Model: "sequential"
_________________________________________________________________
Layer (type)                 Output Shape              Param #   
=================================================================
lstm (LSTM)                  (None, 32)                520320    
_________________________________________________________________
dense (Dense)                (None, 32)                1056      
_________________________________________________________________
dense_1 (Dense)              (None, 64)                2112      
_________________________________________________________________
dense_2 (Dense)              (None, 3)                 195       
=================================================================
Total params: 523,683
Trainable params: 523,683
Non-trainable params: 0
_________________________________________________________________
6.03 Megabyte

resnet152v2 / 15 frames
Model: "sequential"
_________________________________________________________________
Layer (type)                 Output Shape              Param #   
=================================================================
lstm (LSTM)                  (None, 128)               1114624   
_________________________________________________________________
dense (Dense)                (None, 128)               16512     
_________________________________________________________________
dense_1 (Dense)              (None, 128)               16512     
_________________________________________________________________
dense_2 (Dense)              (None, 3)                 387       
=================================================================
Total params: 1,148,035
Trainable params: 1,148,035
Non-trainable params: 0
_________________________________________________________________
13.18 Megabyte

densenet201 / 15 frames
Model: "sequential"
_________________________________________________________________
Layer (type)                 Output Shape              Param #   
=================================================================
lstm (LSTM)                  (None, 32)                249984    
_________________________________________________________________
dense (Dense)                (None, 64)                2112      
_________________________________________________________________
dense_1 (Dense)              (None, 128)               8320      
_________________________________________________________________
dense_2 (Dense)              (None, 3)                 387       
=================================================================
Total params: 260,803
Trainable params: 260,803
Non-trainable params: 0
_________________________________________________________________
3.03 Megabyte

base_1 / 15 frames
Model: "sequential"
_________________________________________________________________
Layer (type)                 Output Shape              Param #   
=================================================================
lstm (LSTM)                  (None, 64)                147712    
_________________________________________________________________
dense (Dense)                (None, 64)                4160      
_________________________________________________________________
dense_1 (Dense)              (None, 32)                2080      
_________________________________________________________________
dense_2 (Dense)              (None, 3)                 99        
=================================================================
Total params: 154,051
Trainable params: 154,051
Non-trainable params: 0
_________________________________________________________________
1.8 Megabyte

mobilenetv2 / 15 frames
Model: "sequential"
_________________________________________________________________
Layer (type)                 Output Shape              Param #   
=================================================================
lstm (LSTM)                  (None, 256)               1573888   
_________________________________________________________________
dense (Dense)                (None, 32)                8224      
_________________________________________________________________
dense_1 (Dense)              (None, 32)                1056      
_________________________________________________________________
dense_2 (Dense)              (None, 3)                 99        
=================================================================
Total params: 1,583,267
Trainable params: 1,583,267
Non-trainable params: 0
_________________________________________________________________
18.16 Megabyte

base_0 / 15 frames
Model: "sequential"
_________________________________________________________________
Layer (type)                 Output Shape              Param #   
=================================================================
lstm (LSTM)                  (None, 256)               787456    
_________________________________________________________________
dense (Dense)                (None, 32)                8224      
_________________________________________________________________
dense_1 (Dense)              (None, 64)                2112      
_________________________________________________________________
dense_2 (Dense)              (None, 3)                 195       
=================================================================
Total params: 797,987
Trainable params: 797,987
Non-trainable params: 0
_________________________________________________________________
9.17 Megabyte

base_4 / 15 frames
Model: "sequential"
_________________________________________________________________
Layer (type)                 Output Shape              Param #   
=================================================================
lstm (LSTM)                  (None, 128)               328192    
_________________________________________________________________
dense (Dense)                (None, 128)               16512     
_________________________________________________________________
dense_1 (Dense)              (None, 32)                4128      
_________________________________________________________________
dense_2 (Dense)              (None, 3)                 99        
=================================================================
Total params: 348,931
Trainable params: 348,931
Non-trainable params: 0
_________________________________________________________________
4.03 Megabyte

densenet121 / 15 frames
Model: "sequential"
_________________________________________________________________
Layer (type)                 Output Shape              Param #   
=================================================================
lstm (LSTM)                  (None, 64)                278784    
_________________________________________________________________
dense (Dense)                (None, 128)               8320      
_________________________________________________________________
dense_1 (Dense)              (None, 128)               16512     
_________________________________________________________________
dense_2 (Dense)              (None, 3)                 387       
=================================================================
Total params: 304,003
Trainable params: 304,003
Non-trainable params: 0
_________________________________________________________________
3.52 Megabyte

base_3 / 15 frames
Model: "sequential"
_________________________________________________________________
Layer (type)                 Output Shape              Param #   
=================================================================
lstm (LSTM)                  (None, 64)                147712    
_________________________________________________________________
dense (Dense)                (None, 128)               8320      
_________________________________________________________________
dense_1 (Dense)              (None, 64)                8256      
_________________________________________________________________
dense_2 (Dense)              (None, 3)                 195       
=================================================================
Total params: 164,483
Trainable params: 164,483
Non-trainable params: 0
_________________________________________________________________
1.92 Megabyte

efficientnetb0 / 15 frames
Model: "sequential"
_________________________________________________________________
Layer (type)                 Output Shape              Param #   
=================================================================
lstm (LSTM)                  (None, 64)                344320    
_________________________________________________________________
dense (Dense)                (None, 128)               8320      
_________________________________________________________________
dense_1 (Dense)              (None, 32)                4128      
_________________________________________________________________
dense_2 (Dense)              (None, 3)                 99        
=================================================================
Total params: 356,867
Trainable params: 356,867
Non-trainable params: 0
_________________________________________________________________
4.12 Megabyte

densenet169 / 15 frames
Model: "sequential"
_________________________________________________________________
Layer (type)                 Output Shape              Param #   
=================================================================
lstm (LSTM)                  (None, 128)               918016    
_________________________________________________________________
dense (Dense)                (None, 64)                8256      
_________________________________________________________________
dense_1 (Dense)              (None, 128)               8320      
_________________________________________________________________
dense_2 (Dense)              (None, 3)                 387       
=================================================================
Total params: 934,979
Trainable params: 934,979
Non-trainable params: 0
_________________________________________________________________
10.74 Megabyte

base_2 / 15 frames
Model: "sequential"
_________________________________________________________________
Layer (type)                 Output Shape              Param #   
=================================================================
lstm (LSTM)                  (None, 128)               328192    
_________________________________________________________________
dense (Dense)                (None, 32)                4128      
_________________________________________________________________
dense_1 (Dense)              (None, 128)               4224      
_________________________________________________________________
dense_2 (Dense)              (None, 3)                 387       
=================================================================
Total params: 336,931
Trainable params: 336,931
Non-trainable params: 0
_________________________________________________________________
3.9 Megabyte

vgg19 / 15 frames
Model: "sequential"
_________________________________________________________________
Layer (type)                 Output Shape              Param #   
=================================================================
lstm (LSTM)                  (None, 128)               12911104  
_________________________________________________________________
dense (Dense)                (None, 128)               16512     
_________________________________________________________________
dense_1 (Dense)              (None, 128)               16512     
_________________________________________________________________
dense_2 (Dense)              (None, 3)                 387       
=================================================================
Total params: 12,944,515
Trainable params: 12,944,515
Non-trainable params: 0
_________________________________________________________________
148.18 Megabyte
