
xception / 20 frames
Model: "sequential"
_________________________________________________________________
Layer (type)                 Output Shape              Param #   
=================================================================
lstm (LSTM)                  (None, 32)                266368    
_________________________________________________________________
dense (Dense)                (None, 128)               4224      
_________________________________________________________________
dense_1 (Dense)              (None, 64)                8256      
_________________________________________________________________
dense_2 (Dense)              (None, 3)                 195       
=================================================================
Total params: 279,043
Trainable params: 279,043
Non-trainable params: 0
_________________________________________________________________
3.23 Megabyte

densenet121 / 20 frames
Model: "sequential"
_________________________________________________________________
Layer (type)                 Output Shape              Param #   
=================================================================
lstm (LSTM)                  (None, 256)               1311744   
_________________________________________________________________
dense (Dense)                (None, 64)                16448     
_________________________________________________________________
dense_1 (Dense)              (None, 32)                2080      
_________________________________________________________________
dense_2 (Dense)              (None, 3)                 99        
=================================================================
Total params: 1,330,371
Trainable params: 1,330,371
Non-trainable params: 0
_________________________________________________________________
15.27 Megabyte

inceptionresnetv2 / 20 frames
Model: "sequential"
_________________________________________________________________
Layer (type)                 Output Shape              Param #   
=================================================================
lstm (LSTM)                  (None, 256)               1836032   
_________________________________________________________________
dense (Dense)                (None, 64)                16448     
_________________________________________________________________
dense_1 (Dense)              (None, 128)               8320      
_________________________________________________________________
dense_2 (Dense)              (None, 3)                 387       
=================================================================
Total params: 1,861,187
Trainable params: 1,861,187
Non-trainable params: 0
_________________________________________________________________
21.34 Megabyte

nasnetlarge / 20 frames
Model: "sequential"
_________________________________________________________________
Layer (type)                 Output Shape              Param #   
=================================================================
lstm (LSTM)                  (None, 256)               4391936   
_________________________________________________________________
dense (Dense)                (None, 128)               32896     
_________________________________________________________________
dense_1 (Dense)              (None, 64)                8256      
_________________________________________________________________
dense_2 (Dense)              (None, 3)                 195       
=================================================================
Total params: 4,433,283
Trainable params: 4,433,283
Non-trainable params: 0
_________________________________________________________________
50.78 Megabyte

resnet152v2 / 20 frames
Model: "sequential"
_________________________________________________________________
Layer (type)                 Output Shape              Param #   
=================================================================
lstm (LSTM)                  (None, 64)                540928    
_________________________________________________________________
dense (Dense)                (None, 32)                2080      
_________________________________________________________________
dense_1 (Dense)              (None, 128)               4224      
_________________________________________________________________
dense_2 (Dense)              (None, 3)                 387       
=================================================================
Total params: 547,619
Trainable params: 547,619
Non-trainable params: 0
_________________________________________________________________
6.31 Megabyte

base_3 / 20 frames
Model: "sequential"
_________________________________________________________________
Layer (type)                 Output Shape              Param #   
=================================================================
lstm (LSTM)                  (None, 256)               787456    
_________________________________________________________________
dense (Dense)                (None, 64)                16448     
_________________________________________________________________
dense_1 (Dense)              (None, 64)                4160      
_________________________________________________________________
dense_2 (Dense)              (None, 3)                 195       
=================================================================
Total params: 808,259
Trainable params: 808,259
Non-trainable params: 0
_________________________________________________________________
9.29 Megabyte

nasnetmobile / 20 frames
Model: "sequential"
_________________________________________________________________
Layer (type)                 Output Shape              Param #   
=================================================================
lstm (LSTM)                  (None, 256)               1344512   
_________________________________________________________________
dense (Dense)                (None, 128)               32896     
_________________________________________________________________
dense_1 (Dense)              (None, 64)                8256      
_________________________________________________________________
dense_2 (Dense)              (None, 3)                 195       
=================================================================
Total params: 1,385,859
Trainable params: 1,385,859
Non-trainable params: 0
_________________________________________________________________
15.9 Megabyte

vgg16 / 20 frames
Model: "sequential"
_________________________________________________________________
Layer (type)                 Output Shape              Param #   
=================================================================
lstm (LSTM)                  (None, 64)                6439168   
_________________________________________________________________
dense (Dense)                (None, 64)                4160      
_________________________________________________________________
dense_1 (Dense)              (None, 32)                2080      
_________________________________________________________________
dense_2 (Dense)              (None, 3)                 99        
=================================================================
Total params: 6,445,507
Trainable params: 6,445,507
Non-trainable params: 0
_________________________________________________________________
73.8 Megabyte

densenet169 / 20 frames
Model: "sequential"
_________________________________________________________________
Layer (type)                 Output Shape              Param #   
=================================================================
lstm (LSTM)                  (None, 256)               1967104   
_________________________________________________________________
dense (Dense)                (None, 32)                8224      
_________________________________________________________________
dense_1 (Dense)              (None, 32)                1056      
_________________________________________________________________
dense_2 (Dense)              (None, 3)                 99        
=================================================================
Total params: 1,976,483
Trainable params: 1,976,483
Non-trainable params: 0
_________________________________________________________________
22.66 Megabyte

base_1 / 20 frames
Model: "sequential"
_________________________________________________________________
Layer (type)                 Output Shape              Param #   
=================================================================
lstm (LSTM)                  (None, 256)               787456    
_________________________________________________________________
dense (Dense)                (None, 64)                16448     
_________________________________________________________________
dense_1 (Dense)              (None, 64)                4160      
_________________________________________________________________
dense_2 (Dense)              (None, 3)                 195       
=================================================================
Total params: 808,259
Trainable params: 808,259
Non-trainable params: 0
_________________________________________________________________
9.29 Megabyte

efficientnetb0 / 20 frames
Model: "sequential"
_________________________________________________________________
Layer (type)                 Output Shape              Param #   
=================================================================
lstm (LSTM)                  (None, 64)                344320    
_________________________________________________________________
dense (Dense)                (None, 32)                2080      
_________________________________________________________________
dense_1 (Dense)              (None, 64)                2112      
_________________________________________________________________
dense_2 (Dense)              (None, 3)                 195       
=================================================================
Total params: 348,707
Trainable params: 348,707
Non-trainable params: 0
_________________________________________________________________
4.03 Megabyte

base_0 / 20 frames
Model: "sequential"
_________________________________________________________________
Layer (type)                 Output Shape              Param #   
=================================================================
lstm (LSTM)                  (None, 128)               328192    
_________________________________________________________________
dense (Dense)                (None, 128)               16512     
_________________________________________________________________
dense_1 (Dense)              (None, 64)                8256      
_________________________________________________________________
dense_2 (Dense)              (None, 3)                 195       
=================================================================
Total params: 353,155
Trainable params: 353,155
Non-trainable params: 0
_________________________________________________________________
4.08 Megabyte

densenet201 / 20 frames
Model: "sequential"
_________________________________________________________________
Layer (type)                 Output Shape              Param #   
=================================================================
lstm (LSTM)                  (None, 32)                249984    
_________________________________________________________________
dense (Dense)                (None, 32)                1056      
_________________________________________________________________
dense_1 (Dense)              (None, 32)                1056      
_________________________________________________________________
dense_2 (Dense)              (None, 3)                 99        
=================================================================
Total params: 252,195
Trainable params: 252,195
Non-trainable params: 0
_________________________________________________________________
2.93 Megabyte

mobilenetv2 / 20 frames
Model: "sequential"
_________________________________________________________________
Layer (type)                 Output Shape              Param #   
=================================================================
lstm (LSTM)                  (None, 32)                168064    
_________________________________________________________________
dense (Dense)                (None, 64)                2112      
_________________________________________________________________
dense_1 (Dense)              (None, 32)                2080      
_________________________________________________________________
dense_2 (Dense)              (None, 3)                 99        
=================================================================
Total params: 172,355
Trainable params: 172,355
Non-trainable params: 0
_________________________________________________________________
2.01 Megabyte

base_4 / 20 frames
Model: "sequential"
_________________________________________________________________
Layer (type)                 Output Shape              Param #   
=================================================================
lstm (LSTM)                  (None, 64)                147712    
_________________________________________________________________
dense (Dense)                (None, 32)                2080      
_________________________________________________________________
dense_1 (Dense)              (None, 32)                1056      
_________________________________________________________________
dense_2 (Dense)              (None, 3)                 99        
=================================================================
Total params: 150,947
Trainable params: 150,947
Non-trainable params: 0
_________________________________________________________________
1.77 Megabyte

vgg19 / 20 frames
Model: "sequential"
_________________________________________________________________
Layer (type)                 Output Shape              Param #   
=================================================================
lstm (LSTM)                  (None, 64)                6439168   
_________________________________________________________________
dense (Dense)                (None, 32)                2080      
_________________________________________________________________
dense_1 (Dense)              (None, 64)                2112      
_________________________________________________________________
dense_2 (Dense)              (None, 3)                 195       
=================================================================
Total params: 6,443,555
Trainable params: 6,443,555
Non-trainable params: 0
_________________________________________________________________
73.78 Megabyte

base_2 / 20 frames
Model: "sequential"
_________________________________________________________________
Layer (type)                 Output Shape              Param #   
=================================================================
lstm (LSTM)                  (None, 256)               787456    
_________________________________________________________________
dense (Dense)                (None, 32)                8224      
_________________________________________________________________
dense_1 (Dense)              (None, 128)               4224      
_________________________________________________________________
dense_2 (Dense)              (None, 3)                 387       
=================================================================
Total params: 800,291
Trainable params: 800,291
Non-trainable params: 0
_________________________________________________________________
9.2 Megabyte
