
base_3 / 10 frames
Model: "sequential"
_________________________________________________________________
Layer (type)                 Output Shape              Param #   
=================================================================
lstm (LSTM)                  (None, 256)               787456    
_________________________________________________________________
dense (Dense)                (None, 128)               32896     
_________________________________________________________________
dense_1 (Dense)              (None, 128)               16512     
_________________________________________________________________
dense_2 (Dense)              (None, 3)                 387       
=================================================================
Total params: 837,251
Trainable params: 837,251
Non-trainable params: 0
_________________________________________________________________
9.62 Megabyte

densenet169 / 10 frames
Model: "sequential"
_________________________________________________________________
Layer (type)                 Output Shape              Param #   
=================================================================
lstm (LSTM)                  (None, 128)               918016    
_________________________________________________________________
dense (Dense)                (None, 32)                4128      
_________________________________________________________________
dense_1 (Dense)              (None, 128)               4224      
_________________________________________________________________
dense_2 (Dense)              (None, 3)                 387       
=================================================================
Total params: 926,755
Trainable params: 926,755
Non-trainable params: 0
_________________________________________________________________
10.65 Megabyte

nasnetmobile / 10 frames
Model: "sequential"
_________________________________________________________________
Layer (type)                 Output Shape              Param #   
=================================================================
lstm (LSTM)                  (None, 64)                286976    
_________________________________________________________________
dense (Dense)                (None, 32)                2080      
_________________________________________________________________
dense_1 (Dense)              (None, 128)               4224      
_________________________________________________________________
dense_2 (Dense)              (None, 3)                 387       
=================================================================
Total params: 293,667
Trainable params: 293,667
Non-trainable params: 0
_________________________________________________________________
3.4 Megabyte


efficientnetb0 / 10 frames
Model: "sequential"
_________________________________________________________________
Layer (type)                 Output Shape              Param #   
=================================================================
lstm (LSTM)                  (None, 64)                344320    
_________________________________________________________________
dense (Dense)                (None, 32)                2080      
_________________________________________________________________
dense_1 (Dense)              (None, 64)                2112      
_________________________________________________________________
dense_2 (Dense)              (None, 3)                 195       
=================================================================
Total params: 348,707
Trainable params: 348,707
Non-trainable params: 0
_________________________________________________________________
4.03 Megabyte

inceptionresnetv2 / 10 frames
Model: "sequential"
_________________________________________________________________
Layer (type)                 Output Shape              Param #   
=================================================================
lstm (LSTM)                  (None, 64)                409856    
_________________________________________________________________
dense (Dense)                (None, 128)               8320      
_________________________________________________________________
dense_1 (Dense)              (None, 32)                4128      
_________________________________________________________________
dense_2 (Dense)              (None, 3)                 99        
=================================================================
Total params: 422,403
Trainable params: 422,403
Non-trainable params: 0
_________________________________________________________________
4.87 Megabyte

base_1 / 10 frames
Model: "sequential"
_________________________________________________________________
Layer (type)                 Output Shape              Param #   
=================================================================
lstm (LSTM)                  (None, 32)                69760     
_________________________________________________________________
dense (Dense)                (None, 128)               4224      
_________________________________________________________________
dense_1 (Dense)              (None, 128)               16512     
_________________________________________________________________
dense_2 (Dense)              (None, 3)                 387       
=================================================================
Total params: 90,883
Trainable params: 90,883
Non-trainable params: 0
_________________________________________________________________
1.08 Megabyte

densenet201 / 10 frames
Model: "sequential"
_________________________________________________________________
Layer (type)                 Output Shape              Param #   
=================================================================
lstm (LSTM)                  (None, 256)               2229248   
_________________________________________________________________
dense (Dense)                (None, 128)               32896     
_________________________________________________________________
dense_1 (Dense)              (None, 128)               16512     
_________________________________________________________________
dense_2 (Dense)              (None, 3)                 387       
=================================================================
Total params: 2,279,043
Trainable params: 2,279,043
Non-trainable params: 0
_________________________________________________________________
26.12 Megabyte

resnet152v2 / 10 frames
Model: "sequential"
_________________________________________________________________
Layer (type)                 Output Shape              Param #   
=================================================================
lstm (LSTM)                  (None, 32)                266368    
_________________________________________________________________
dense (Dense)                (None, 128)               4224      
_________________________________________________________________
dense_1 (Dense)              (None, 32)                4128      
_________________________________________________________________
dense_2 (Dense)              (None, 3)                 99        
=================================================================
Total params: 274,819
Trainable params: 274,819
Non-trainable params: 0
_________________________________________________________________
3.19 Megabyte

base_2 / 10 frames
Model: "sequential"
_________________________________________________________________
Layer (type)                 Output Shape              Param #   
=================================================================
lstm (LSTM)                  (None, 256)               787456    
_________________________________________________________________
dense (Dense)                (None, 32)                8224      
_________________________________________________________________
dense_1 (Dense)              (None, 128)               4224      
_________________________________________________________________
dense_2 (Dense)              (None, 3)                 387       
=================================================================
Total params: 800,291
Trainable params: 800,291
Non-trainable params: 0
_________________________________________________________________
9.2 Megabyte

mobilenetv2 / 10 frames
Model: "sequential"
_________________________________________________________________
Layer (type)                 Output Shape              Param #   
=================================================================
lstm (LSTM)                  (None, 32)                168064    
_________________________________________________________________
dense (Dense)                (None, 128)               4224      
_________________________________________________________________
dense_1 (Dense)              (None, 64)                8256      
_________________________________________________________________
dense_2 (Dense)              (None, 3)                 195       
=================================================================
Total params: 180,739
Trainable params: 180,739
Non-trainable params: 0
_________________________________________________________________
2.11 Megabyte

densenet121 / 10 frames
Model: "sequential"
_________________________________________________________________
Layer (type)                 Output Shape              Param #   
=================================================================
lstm (LSTM)                  (None, 128)               590336    
_________________________________________________________________
dense (Dense)                (None, 32)                4128      
_________________________________________________________________
dense_1 (Dense)              (None, 32)                1056      
_________________________________________________________________
dense_2 (Dense)              (None, 3)                 99        
=================================================================
Total params: 595,619
Trainable params: 595,619
Non-trainable params: 0
_________________________________________________________________
6.86 Megabyte

nasnetlarge / 10 frames
Model: "sequential"
_________________________________________________________________
Layer (type)                 Output Shape              Param #   
=================================================================
lstm (LSTM)                  (None, 64)                1048832   
_________________________________________________________________
dense (Dense)                (None, 32)                2080      
_________________________________________________________________
dense_1 (Dense)              (None, 128)               4224      
_________________________________________________________________
dense_2 (Dense)              (None, 3)                 387       
=================================================================
Total params: 1,055,523
Trainable params: 1,055,523
Non-trainable params: 0
_________________________________________________________________
12.12 Megabyte

base_4 / 10 frames
Model: "sequential"
_________________________________________________________________
Layer (type)                 Output Shape              Param #   
=================================================================
lstm (LSTM)                  (None, 256)               787456    
_________________________________________________________________
dense (Dense)                (None, 32)                8224      
_________________________________________________________________
dense_1 (Dense)              (None, 64)                2112      
_________________________________________________________________
dense_2 (Dense)              (None, 3)                 195       
=================================================================
Total params: 797,987
Trainable params: 797,987
Non-trainable params: 0
_________________________________________________________________
9.17 Megabyte

xception / 10 frames
Model: "sequential"
_________________________________________________________________
Layer (type)                 Output Shape              Param #   
=================================================================
lstm (LSTM)                  (None, 32)                266368    
_________________________________________________________________
dense (Dense)                (None, 128)               4224      
_________________________________________________________________
dense_1 (Dense)              (None, 128)               16512     
_________________________________________________________________
dense_2 (Dense)              (None, 3)                 387       
=================================================================
Total params: 287,491
Trainable params: 287,491
Non-trainable params: 0
_________________________________________________________________
3.33 Megabyte

vgg16 / 10 frames
Model: "sequential"
_________________________________________________________________
Layer (type)                 Output Shape              Param #   
=================================================================
lstm (LSTM)                  (None, 128)               12911104  
_________________________________________________________________
dense (Dense)                (None, 128)               16512     
_________________________________________________________________
dense_1 (Dense)              (None, 128)               16512     
_________________________________________________________________
dense_2 (Dense)              (None, 3)                 387       
=================================================================
Total params: 12,944,515
Trainable params: 12,944,515
Non-trainable params: 0
_________________________________________________________________
148.18 Megabyte

vgg19 / 10 frames
Model: "sequential"
_________________________________________________________________
Layer (type)                 Output Shape              Param #   
=================================================================
lstm (LSTM)                  (None, 128)               12911104  
_________________________________________________________________
dense (Dense)                (None, 128)               16512     
_________________________________________________________________
dense_1 (Dense)              (None, 64)                8256      
_________________________________________________________________
dense_2 (Dense)              (None, 3)                 195       
=================================================================
Total params: 12,936,067
Trainable params: 12,936,067
Non-trainable params: 0
_________________________________________________________________
148.08 Megabyte


base_0 / 10 frames
Model: "sequential"
_________________________________________________________________
Layer (type)                 Output Shape              Param #   
=================================================================
lstm (LSTM)                  (None, 256)               787456    
_________________________________________________________________
dense (Dense)                (None, 128)               32896     
_________________________________________________________________
dense_1 (Dense)              (None, 64)                8256      
_________________________________________________________________
dense_2 (Dense)              (None, 3)                 195       
=================================================================
Total params: 828,803
Trainable params: 828,803
Non-trainable params: 0
_________________________________________________________________
9.53 Megabyte
